interface/synth_model.pt (torch, 933532 bytes, 33 tensors)

pos_emb f4 [1, 2000, 64]
000000 07 5f 58 3c d3 3b be 3b 7e 71 40 bc 6e c7 f3 bb
       0.01320625 0.0058054714 -0.011745809 -0.0074395454
000010 f5 4b 80 bb 4c cb c9 3c 62 21 b2 3b 3c 17 0d 3b
       -0.003915305 0.024633072 0.0054361084 0.0021528741
000020 f5 2e 7d 3c b0 31 42 3a f9 b5 7a bc f3 4b 5c 3c
       0.01545309 0.0007407917 -0.015302175 0.013445842
000030 b0 1a 3e bb 97 75 a3 3b 03 ac 3c bb ae 21 72 3b
       -0.0029007606 0.004988383 -0.002878905 0.0036946344
000040 db f2 e1 ba 73 22 62 3b 7c e0 74 3c 85 42 86 3c
       -0.0017238514 0.0034505397 0.014946099 0.01638914
000050 91 5e 05 3c 99 01 e1 3a 39 50 4f bc 0a 8e a4 bb
       0.008140222 0.0017166614 -0.012653404 -0.005021815
000060 3e 92 38 3b 75 d1 ef b8 a2 fc 80 bb 49 f4 32 3c
       0.002816334 -0.000114354225 -0.003936366 0.0109225
000070 46 77 f4 bc c3 f0 67 bc 9d 50 b4 bb 3b 01 e8 b9
       -0.02984203 -0.014156523 -0.005502774 -0.00044251405
000080 fc cb 8c bc ed b1 ee 3b a0 c4 0a 3a d0 a9 9d bb
       -0.017187111 0.007284394 0.00052935816 -0.004811503
000090 2b 5c 20 3c e9 55 2c bb 60 21 16 bb 1e fa 36 bc
       0.0097876 -0.0026296324 -0.0022908077 -0.011168031
0000a0 2f fd 8a bc b1 4c 51 3c 4d 84 6e 3c 44 ef 12 3b
       -0.01696643 0.012774632 0.01455791 0.0022420445
0000b0 3c 75 71 bc 22 c6 3a 3b ba 06 92 ba 6f 2b bc 3c
       -0.0147374235 0.0028499444 -0.0011140921 0.02296993
0000c0 d7 7b d2 ba e6 7a e7 3a be e4 26 bc 4d 75 7b 39
       -0.0016058636 0.0017660528 -0.010186372 0.00023980923
0000d0 9d 5e 5e bc b9 ce 76 bc 16 08 72 bc a8 53 f5 bb
       -0.013572362 -0.015063935 -0.014772436 -0.0074867792
0000e0 dc 48 38 3b d2 5d 9c bc 56 f4 a2 bc 5c 76 1a 3b
       0.00281196 -0.019087706 -0.0198919 0.0023569083
0000f0 ac 88 17 3c 91 6c 2a bc 0a 19 8c 3b 2b 56 7c 3b
       0.009248894 -0.010401861 0.004275446 0.0038503509
000100 ae d1 22 3c 03 9b 21 bc b9 0e f9 3b de 61 d3 3a
       0.009937687 -0.009863618 0.007600632 0.0016127189
000110 67 62 8b bc e9 44 3f 3c b8 c3 50 3b a4 6c 86 3c
       -0.017014695 0.011674144 0.0031854939 0.016409226
000120 7f 1b 43 3c 7f 94 a7 3c 54 1a 94 3a 6e 67 53 bc
       0.011908411 0.02045655 0.001129935 -0.0129030775
000130 38 19 20 bb c3 0b d2 3b a0 ac 82 3c 5d 72 8d 3b
       -0.0024429094 0.0064100935 0.015951455 0.0043166117
000140 75 09 d4 ba f8 a9 8f bc c6 56 1f bc fd 50 5f bb
       -0.0016177135 -0.017537102 -0.009725278 -0.0034075372
000150 e8 c0 57 3b 13 2c d5 39 0b 91 dd bb 05 35 a8 bc
       0.0032921378 0.00040659364 -0.0067616752 -0.020533094
000160 e1 71 06 bc ce 65 f2 3b 03 8a 89 bc 63 c8 1b 3c
       -0.008205862 0.00739739 -0.016789442 0.009508225
000170 38 3e 9a 3b 76 cf 4c bc 9e e3 51 3c bc 4d 17 3c
       0.004707124 -0.012500634 0.012810616 0.009234842
000180 8a fe 41 3b f9 f1 a1 3c f1 e1 1e 3a 4f a2 60 bc
       0.002960118 0.019768702 0.00060608896 -0.013710572
000190 2c 7f e4 b7 c5 75 b1 3b af 50 ec b9 84 59 67 3c
       -2.7238937e-05 0.0054156506 -0.00045073542 0.014120463
0001a0 d6 c8 ff bb 7b 08 a4 bb 10 b9 c2 bc 8d fb d6 bb
       -0.007805924 -0.0050058938 -0.023769885 -0.006560749
0001b0 03 e3 f8 ba eb 0a 8c 3b cc 10 f4 bb 89 84 03 3c
       -0.0018988553 0.0042737625 -0.0074482914 0.008027204
0001c0 47 af 90 bb 54 3c 7f 39 1d 1d de bb 48 16 fb 3b
       -0.004415426 0.00024341169 -0.006778373 0.0076625682
0001d0 ce 5e b3 ba f8 0c 5a 3a 46 89 5c bb 28 a5 69 3c
       -0.001368487 0.00083179725 -0.0033651157 0.014260568
0001e0 88 58 89 3c 6c 8a 25 bc df 4b 31 3c 21 68 7e 3b
       0.016765848 -0.010103803 0.010821312 0.003881939
0001f0 7b 31 e5 3b 52 c6 b9 ba c0 c6 18 bb 90 59 73 ba
       0.006994424 -0.0014173484 -0.0023311824 -0.000928306
000200 ef 09 bf bb dd 61 22 bb 39 cc ac bc 74 de 8f bc
       -0.0058300416 -0.002477757 -0.021093475 -0.017562129
000210 d4 cd 43 bc b2 c3 47 3c 92 e7 64 3b e7 1f 9b 3b
       -0.011950929 0.0121926535 0.0034928066 0.0047340277
000220 fa 51 85 bc e6 21 dd bb 1b 4a 14 3c 50 2b 90 bb
       -0.016274441 -0.006748426 0.009050871 -0.0043996945
000230 9d c9 e2 3b 67 07 7d bb 63 32 a6 bc 10 1d 73 3b
       0.006921007 -0.0038609148 -0.020287698 0.003709618
000240 26 33 12 bc 73 36 af bb 6b a3 cd bc c0 5a cb 3b
       -0.008923328 -0.005347067 -0.025102338 0.0062058866
000250 29 7b b4 3b 73 19 0f bc 7a a5 93 3c cb c0 5b ba
       0.005507846 -0.008734095 0.018023241 -0.00083829154
000260 6a 0e 53 3c 16 45 64 3c a5 83 32 3c a3 fa 06 3c
       0.012881855 0.013932487 0.010895644 0.008238467
000270 c0 ab 24 bb 9e 0d 32 3c ca f7 c6 b8 87 9a 68 bc
       -0.0025126785 0.010867504 -9.48753e-05 -0.014196998
000280 03 2a c4 3b 38 7e b2 b9 c7 85 aa ba c2 8e ee bb
       0.0059864535 -0.00034044846 -0.001300984 -0.0072802017
000290 b1 ec 06 bb 68 0f 74 bb 4a c8 86 bc e2 cb 23 bb
       -0.0020587856 -0.0037240628 -0.016452927 -0.002499335
0002a0 91 6d 5a 3c 31 a5 c1 ba 61 a6 df 3b a4 b0 6f 3b
       0.013331787 -0.0014773962 0.006825254 0.0036573792
0002b0 a1 ef 37 3b da 3f 99 3b 81 5f b8 3b b7 0d 75 3c
       0.0028066414 0.004676801 0.0056266193 0.014956883
0002c0 ee e3 31 3c 3e 34 54 bb db c8 3d 3c b0 d0 91 bb
       0.010857565 -0.0032379772 0.011583532 -0.0044499263
0002d0 4f d2 f0 3b 51 3c 68 3c be 77 a0 bc 71 a8 9d bc
       0.0073492895 0.014174537 -0.019588348 -0.019245358
0002e0 0c 0c 1f 3c bd 5a b3 bc 4f 89 34 bb d9 72 5e bb
       0.009707462 -0.021893853 -0.0027547663 -0.0033942966
0002f0 b2 8f 18 bc c8 c6 80 bb bb d8 57 3b e7 1e 71 bc
       -0.009311603 -0.0039299466 0.0032935578 -0.01471684
000300 14 2f c9 bb d5 f0 db bb ab 22 14 3c bd 1f a1 bb
       -0.0061396454 -0.006712059 0.009041469 -0.0049171136
000310 e4 c1 bc bb c8 58 5d 3c f3 19 49 ba f3 cb 82 3b
       -0.0057604183 0.013509937 -0.0007671408 0.003991598
000320 e6 b2 95 3c 45 f7 d1 3a 14 22 0f bc 80 32 53 bc
       0.018273782 0.0016019127 -0.008736152 -0.012890458
000330 af 9a ce 3a 8f 6f 90 3b 3c e7 6f bb 42 d5 9a ba
       0.0015762652 0.00440783 -0.0036606332 -0.0011812823
000340 f6 07 94 3c da 49 16 bc 5f e2 d5 ba 44 5b 5d 3a
       0.018070202 -0.009172881 -0.0016318074 0.00084440806
000350 25 73 8e 3b 71 ff 54 bc 2b 64 4b bc e6 bc 68 3b
       0.0043472224 -0.013000355 -0.012414019 0.0035512983
000360 ef 2c 21 ba 30 24 ee 3b 2d 32 55 3b bb 5d b7 bb
       -0.0006148358 0.0072674975 0.0032531128 -0.0055958903
000370 b5 63 88 3c fa 70 a2 bc 66 af 00 bb 00 3f 99 bc
       0.016649107 -0.019829262 -0.0019635796 -0.018706799
000380 a2 0f 92 bb 6a 81 0d 3c d4 fb 25 bb 03 43 74 bc
       -0.00445743 0.008636812 -0.0025327103 -0.014908555
000390 b2 eb 96 3b b4 d8 10 3b eb 16 52 bc 5c b0 30 3c
       0.004605734 0.0022101821 -0.012822847 0.010784235
0003a0 e8 a9 8d 3c 40 f3 90 3c e5 d1 b8 bb 5b 6d 4a 3b
       0.017292932 0.017694116 -0.0056402558 0.0030887935
0003b0 db 51 c7 bc bf e7 1d bc f3 88 75 bc 53 16 a2 3c
       -0.024331024 -0.009637772 -0.0149862645 0.019786036
0003c0 9d 9a 47 b9 c4 f2 ed ba 24 79 70 3c 89 ec 9b 3c
       -0.00019035717 -0.0018154015 0.01467732 0.019033687
0003d0 49 30 d2 ba e6 a8 0b 3c 47 29 95 38 53 d0 f1 3b
       -0.0016036119 0.008524155 7.112562e-05 0.0073795705
0003e0 63 b2 b5 3b 6c d9 79 bc 8f 1f 44 bc f0 82 4c 3b
       0.005544947 -0.015249591 -0.011970415 0.0031205975
0003f0 80 6f d2 3a b9 a2 85 bb fe c3 8a bc f2 e1 14 bc
       0.0016054958 -0.004078236 -0.01693916 -0.009087073

input_proj.weight f4 [64, 1]
000000 a2 bf 43 3f c7 0f 58 3f 0a 33 77 be b1 b8 6e 3f
       0.76464283 0.84399074 -0.24140564 0.93250567
000010 08 2e 59 be d6 2d 56 3e 65 e4 fb be 2d a3 17 3f
       -0.21208966 0.20915923 -0.4919769 0.5923336
000020 37 e5 63 3f d9 e6 3e bf 3e b4 60 3f 7a db 3d 3e
       0.8902163 -0.74570996 0.8777503 0.18540755
000030 c9 b0 3b 3f 61 60 01 3e 39 5d fa 3e 8c 91 1f be
       0.7331663 0.12634422 0.48899248 -0.15582865
000040 94 f3 46 3f c2 c8 09 3e 32 1a f5 be 7a 84 84 3e
       0.7771542 0.1345549 -0.47871548 0.25882322
000050 55 c6 f2 be da 7d 00 be 1b 1c d2 be 42 22 2c 3f
       -0.4741694 -0.12548009 -0.41037068 0.67239773
000060 9b 5c 4d bf d6 b9 ec be 29 36 91 be ec 03 1d bf
       -0.8021943 -0.46235532 -0.28361633 -0.6133411
000070 42 df d3 3d 55 06 7f bf 15 ff 65 3f 44 e2 5a bf
       0.103453174 -0.99619037 0.8984235 -0.85501504
000080 71 8c 49 3f 5d eb 36 3e 27 ed ad be 74 62 1d 3f
       0.7872992 0.17863221 -0.33969995 0.6147835
000090 49 db 29 3e 12 80 52 3f da 9d c6 3d 1e 0b a5 be
       0.16587557 0.8222667 0.096980765 -0.32235044
0000a0 e4 a9 8e 3e 50 65 87 be 05 01 d1 3e fd 1e 65 3f
       0.2786399 -0.26444483 0.4082109 0.8950041
0000b0 54 ca 13 3f a7 22 e0 be e9 cb 10 3f a1 ca 35 3e
       0.57730603 -0.43776438 0.5656114 0.17753078
0000c0 cb 74 04 3f 5d a7 1e bf de fd 7d bf 36 b5 c1 be
       0.5174071 -0.61974126 -0.99215496 -0.37833565
0000d0 ef 0f 46 bf 1e b4 55 3f a9 56 91 3e 3b c2 d3 3e
       -0.7736806 0.8347796 0.2838643 0.41359124
0000e0 51 6f 9c 3e 7d 91 8d bb c8 95 4a 3f 80 2e 35 bf
       0.30553678 -0.004320322 0.791348 -0.7077408
0000f0 05 97 8c 3d 20 63 31 bf 57 89 9b 3e fe 10 b6 be
       0.06864742 -0.6929188 0.3037822 -0.3555984

input_proj.bias f4 [64]
000000 cf f2 98 3e 57 4f 5a be b4 30 55 3f a3 ff 16 bf
       0.29872748 -0.21319328 0.8327744 -0.5898382
000010 57 a3 1a bf 0d 10 18 bf d1 02 66 3f f7 c3 a8 3e
       -0.60405487 -0.5939949 0.8984805 0.3296201
000020 fc 3f 78 3f 81 8d 52 bf 2a 2c 7d bf e4 95 48 bf
       0.9697263 -0.8224717 -0.98895514 -0.78353715
000030 44 c4 2c bf 5b 39 d0 3e 19 ff b7 3e d5 a7 54 3f
       -0.6748698 0.4066876 0.35936812 0.8306859
000040 ec f1 03 bf ad 4a 2e bf 2a 86 07 3f 1c e6 d0 be
       -0.5154102 -0.68082696 0.52939093 -0.4080056
000050 d8 88 1c 3f 23 26 74 be 8c b9 11 3f 09 c8 48 bf
       0.61146307 -0.23842673 0.5692375 -0.7843023
000060 56 f5 01 bf b7 ab 97 3e 7c c9 5c 3e c5 c6 86 be
       -0.5076498 0.29623196 0.21561235 -0.26323524
000070 82 91 18 3f 3b ae 2c 3f 21 5e 39 bf 8c c9 09 bf
       0.5959703 0.67453355 -0.72409254 -0.5382316
000080 09 39 69 3f eb f2 ab be 1e 74 b2 be 2d 08 77 bf
       0.91102654 -0.3358377 -0.34854215 -0.9649685
000090 a4 35 12 bf 8f d9 7e 3e 9f d6 07 be c1 72 3a bf
       -0.571131 0.2488768 -0.13265465 -0.7283135
0000a0 1b 3c 9a 3c a1 d3 2e bf 9e ee 59 bf 51 33 0d bf
       0.018827489 -0.6829167 -0.85129726 -0.5515643
0000b0 1e d7 60 bf 77 95 22 bf 8a 7d 7e 3f 66 b0 3e 3e
       -0.8782824 -0.63509315 0.9941031 0.18621978
0000c0 43 aa 9e 3e 4e f6 6d bf cf 94 29 bf 04 8b ab be
       0.30989274 -0.92953956 -0.6624269 -0.33504498
0000d0 5e 89 23 3e 7c 60 63 bf 33 39 de be 73 ae 18 bf
       0.1597037 -0.888191 -0.43403015 -0.5964119
0000e0 7c 00 71 3c 14 64 be be a9 da 90 bd 93 82 2d bf
       0.014709588 -0.3718573 -0.07072956 -0.67777365
0000f0 e9 8a 2e bf d0 2f 17 bf 5e d1 b2 be 06 93 49 bf
       -0.6818071 -0.5905733 -0.3492536 -0.78739965

encoder.layers.0.self_attn.in_proj_weight f4 [192, 64]
000000 d3 c6 cb bc 1d 5a b5 3d f6 24 22 be 9c 3d 23 3e
       -0.02487508 0.08855078 -0.15834412 0.15941471
000010 7e a4 bb bc 6c 9f dd 3d 10 41 2b bd e5 96 c3 3d
       -0.022905584 0.10821423 -0.041810095 0.09550265
000020 09 f1 e6 3d d3 90 c1 bd a4 27 23 3e 69 76 6c 3d
       0.112764426 -0.09451451 0.1593309 0.057730112
000030 13 de 00 be fa da 88 3d 96 4a cd 3c 20 e5 09 be
       -0.12584715 0.066823915 0.02505998 -0.1346631
000040 83 df 3e 3d a0 9f d9 3d 0a eb 9f bb 27 71 ed bd
       0.046599876 0.10626149 -0.0048803138 -0.11593848
000050 c8 e6 ff bd db 92 7f bd 23 65 fd bc 4b 83 ef bd
       -0.1249519 -0.06239591 -0.030932015 -0.11694964
000060 3c 1b 13 3e 7f 74 d9 bd 99 2b 0d 3d 58 01 18 be
       0.14365858 -0.10617923 0.034465406 -0.14844263
000070 0c a2 95 3d e1 b6 08 3e 54 21 11 3e 2b 9d da bd
       0.073062986 0.13351013 0.1417287 -0.10674509
000080 87 d2 ab bd f4 36 a7 bd 7f d9 b6 bd 85 4d a2 3d
       -0.08389764 -0.08164778 -0.08928203 0.07924942
000090 63 72 9a 3d d7 82 d7 bc 50 38 01 be da e4 ae 3d
       0.07541349 -0.026307506 -0.12619138 0.08539744
0000a0 00 91 8d bb 36 1f bd bd 8c fe 12 3c 56 eb 7e bd
       -0.004320264 -0.09234469 0.0089718215 -0.062236153
0000b0 d8 4e b1 bc 31 7d f5 3b d6 16 db 3c 8a 9b 30 bd
       -0.021644041 0.0074917306 0.026744287 -0.043117084
0000c0 17 c3 87 3d 98 d6 89 3c 35 51 16 bd fb 10 fb bd
       0.06629007 0.01682596 -0.03669854 -0.12259098
0000d0 a0 5a d6 bd c9 a3 ec bd 9c 67 aa bd de b2 03 be
       -0.10466504 -0.11554677 -0.08320543 -0.12861201
0000e0 d8 68 78 3d 82 d5 e6 bd f9 2c 91 bd 2d f1 7b 3d
       0.06064686 -0.11271192 -0.07088656 0.0615093
0000f0 d5 26 10 be 72 ed ab 3d 5a d5 a2 3d b5 1c fa bd
       -0.14077313 0.083948985 0.0795085 -0.12212507
000100 75 fd f0 bd 7c 5e 07 3e ed 20 01 be 3c b1 01 be
       -0.11767093 0.13219637 -0.12610216 -0.12665266
000110 36 ea 93 bd 9f e8 90 3d 84 e9 0e be ed d9 88 bd
       -0.072224066 0.07075619 -0.13956267 -0.06682191
000120 22 55 d5 3d a2 f2 0a 3e a4 ff f4 bd 1a c4 ea bd
       0.104166284 0.1356912 -0.11962822 -0.11463185
000130 e0 c7 fd 3d df db f2 3d f0 d0 e1 3d 92 f2 15 bc
       0.12391639 0.11858343 0.1102618 -0.009152072
000140 90 40 a2 3d 24 92 3d bd 26 23 18 bd ad 66 ab 3d
       0.079224706 -0.04628195 -0.037142895 0.08369193
000150 cc 05 e8 3d da a9 03 be 9c b0 15 3e fe 6e 8b bc
       0.11329231 -0.12857762 0.14618152 -0.017020699
000160 ef 80 12 3e 7a a2 16 3e 99 66 bd 3d cb f8 ea bc
       0.14306997 0.14710417 0.092480846 -0.028683087
000170 9b 50 74 bd 8b 9e b2 3d fb f8 8a 3d 1c 73 db 3d
       -0.059647184 0.08721646 0.067857705 0.10715315
000180 d5 5e 02 3e 2a fb 3a 3b c4 2b 05 be ab 0b 8e bc
       0.12731488 0.0028531053 -0.13004977 -0.017339548
000190 ef 92 17 be 5a 42 fb bd f8 df c9 bc 3a ff ba 3d
       -0.14802144 -0.12268515 -0.02464293 0.09130712
0001a0 e2 07 e3 3d a6 1e 71 3d 5c b1 31 3d 39 d8 08 3e
       0.11085488 0.05886712 0.043382034 0.13363732
0001b0 f9 fa 9a 3d eb a8 02 3d d0 7f 7c 3d bb c4 fa 3d
       0.075674005 0.031899374 0.06164533 0.122445546
0001c0 1b 17 ed bd a5 58 0e 3e 2f b3 85 bd 26 02 a3 3d
       -0.11576673 0.13901003 -0.06528317 0.07959394
0001d0 3b 41 f8 3d 72 b0 1a be 42 34 e9 bd 3a ad fd 3d
       0.12121817 -0.15106371 -0.113869205 0.12386556
0001e0 a3 d1 5c bd 8c 38 99 bd ae 89 f4 3d 62 af e8 bd
       -0.053910863 -0.074814886 0.11940323 -0.113615766
0001f0 1e d7 95 bd 5f d4 21 3d 20 d3 fb bd 5b 61 13 3e
       -0.07316421 0.039509173 -0.12296128 0.14392607
000200 91 d7 b9 bd f6 e1 b6 bd dc 8e db bd 01 4f 13 3e
       -0.09074319 -0.089298174 -0.10720608 0.14385606
000210 d5 ef 9c 3d b5 b5 0f 3e f2 11 e3 bb 5c 8e b3 3d
       0.07662932 0.1403416 -0.0069296295 0.08767387
000220 1f c9 5a 3d 51 35 ef bc 5f 8f c6 bd 75 e9 da bd
       0.05341446 -0.029200228 -0.096953146 -0.1068906
000230 7e 5b 1a 3d e5 59 92 bd d5 77 14 3d 21 47 e7 bc
       0.03768491 -0.07146052 0.036247093 -0.02823216
000240 15 52 dd 3d 41 b2 7d 3d c5 6e c4 bc ed af c3 3d
       0.108066715 0.061937574 -0.0239786 0.095550396
000250 86 a6 ac bb 6d 2e e5 bd 50 5e c4 3c 25 72 a6 3d
       -0.0052688746 -0.11190496 0.023970753 0.0812724
000260 32 fa 1a bd 4b db c9 bd c9 34 01 3e fa 5b d4 3d
       -0.03783626 -0.0985628 0.12617792 0.10369106
000270 98 e7 5f 3d 2a 8d 90 3d 4b 03 15 3d c7 c5 1e 3e
       0.054664224 0.07058175 0.036380094 0.15505134
000280 9b 69 aa bd 78 48 57 3d 7f 74 fb 3d cd 85 27 bd
       -0.08320924 0.052559346 0.12278079 -0.040899087
000290 ed 57 ab 3d a9 ba 1d bd c0 24 cc bd 8d a1 29 3d
       0.0836638 -0.03850809 -0.09967947 0.041413832
0002a0 8e 24 18 bd 8d 18 97 bd a5 a2 e6 3d 7d ae 34 bd
       -0.037144236 -0.073777296 0.11261491 -0.044111717
0002b0 d9 25 54 3d 8c 76 13 be 2f 0d d2 bd 82 fb f6 bd
       0.051793907 -0.14400691 -0.10256421 -0.1205969
0002c0 f0 a6 ea 3d a6 0b 16 3e bd 44 db 3c 0d ef ca 3d
       0.11457622 0.14652881 0.026766175 0.099088766
0002d0 65 44 00 be 33 22 a7 3d 62 e3 0f be 2b 42 0c bc
       -0.1252609 0.0816082 -0.14051583 -0.008560698
0002e0 4f 15 10 3e 5d 78 cc bd 8d c8 be 3d 7e 61 05 be
       0.14070629 -0.09983895 0.09315596 -0.13025472
0002f0 5e d2 ec bd 90 5e 0e be ff 30 ef 3d 56 9e 1d 3e
       -0.11563562 -0.1390326 0.11679267 0.15392432
000300 f7 6c f1 3d fa 62 11 3e 33 ad 34 3d eb 89 80 3c
       0.117883615 0.14197913 0.04411049 0.015690764
000310 0a 12 e7 3c 6c 1e b1 3d cd 1e 2d bd 10 21 07 3e
       0.028206844 0.08648381 -0.042265702 0.13196206
000320 ac 2d 71 3b 10 43 15 be ea 16 a2 bd 5b ba 9f bd
       0.0036800904 -0.14576364 -0.07914527 -0.07799216
000330 50 58 be 3d ff 24 55 3d 3d d1 9e bc 21 53 0a 3e
       0.09294188 0.052037235 -0.019386882 0.13508274
000340 9b b7 09 3e 00 12 0e be 53 b7 eb bc 55 be 55 3c
       0.13448946 -0.13874054 -0.02877394 0.013045867
000350 1a ed 66 3d 85 a5 2a 3d 93 8c 4b 3c 4a 14 10 be
       0.05637846 0.041661758 0.012423652 -0.1407024
000360 72 d4 94 bd 69 c3 0b bc 38 44 d0 bd ab 5c 7d bc
       -0.07267083 -0.008530476 -0.10169262 -0.015463988
000370 e4 5e 28 bc 14 6a 06 3d dd 8d d3 bd 41 03 84 3d
       -0.01027653 0.032816008 -0.10329793 0.06445933
000380 d4 85 51 bc f1 27 4f 3d 5e 7f bf 3d 9a df 9a 3d
       -0.012788255 0.0505752 0.09350465 0.0756218
000390 4d 3f e6 3d c6 73 df 3d bc 37 71 3d 51 52 b6 3d
       0.112425424 0.10910754 0.058891043 0.08902419
0003a0 45 db 33 3d 68 77 e2 bd 97 fe 1e be ff 94 2a 3d
       0.043910284 -0.11057931 -0.15526806 0.041646
0003b0 20 fd e4 3d b8 30 4e bd de 53 59 bd a6 23 18 3e
       0.11181092 -0.05033943 -0.053058498 0.14857349
0003c0 f0 dc 35 3d 12 cb 6d bd ab de 90 bd d8 d9 6c bd
       0.044400156 -0.05805499 -0.070737205 -0.05782494
0003d0 a9 e7 4c 3d 7b b8 98 3d f6 4d c9 bd e3 16 bb bd
       0.050025616 0.07457062 -0.09829323 -0.09135225
0003e0 7b 92 f1 3d 59 18 c6 3d d7 d1 09 3d ac 4c b5 3d
       0.11795517 0.09672613 0.033647384 0.088525146
0003f0 5c 0c f1 bd 25 58 0a 3d 1b b4 ec 3d 98 80 04 be
       -0.117699355 0.033775467 0.1155779 -0.1293968

encoder.layers.0.self_attn.in_proj_bias f4 [192]
000000 dc 8a d0 bb c2 f7 96 3b af 9f 90 bb c0 e0 8a 3b
       -0.0063642096 0.0046071718 -0.004413567 0.004238218
000010 a2 60 8d 3b c6 61 91 3b ff d9 a4 bb bf d9 90 bb
       0.004314498 0.0044367043 -0.00503087 -0.0044204886
000020 f5 55 59 bb 17 14 93 3b 82 45 8e 3b 4f 41 7f 3b
       -0.0033162807 0.004488479 0.004341782 0.003894884
000030 b1 85 92 bb d1 27 9b 3b 45 5b 9c bb 89 eb 8d 3b
       -0.0044715037 0.004734971 -0.0047716224 0.0043310565
000040 fa ab f1 3b f5 45 d4 3b 6c 36 f9 bb 0d d6 c9 3b
       0.0073752375 0.006478066 -0.0076053645 0.00615955
000050 66 04 fb 3b 03 64 ed 3b be 64 ee bb 53 95 02 bc
       0.0076604364 0.0072445883 -0.007275193 -0.007970172
000060 75 51 f0 bb d5 17 02 3c db a0 d7 3b 89 83 df 3b
       -0.007333929 0.007940252 0.0065804548 0.0068211
000070 bc ec 96 3a 30 16 f3 bb 98 d8 2e 3b 3e dd fb bb
       0.0011514644 -0.0074184164 0.0026679393 -0.0076862862
000080 d3 4b 30 3c 97 ae 99 bb 69 6e 43 bc cd 27 41 3c
       0.010760265 -0.004690002 -0.011928179 0.011789274
000090 76 a8 d9 ba 51 32 39 3c d6 d6 3c bc 8c a6 12 3c
       -0.0016605991 0.0113035 -0.01152583 0.008950841
0000a0 9b 9c 3b 3c a6 59 42 3c e6 3d 9f 3b 06 2d 7c bc
       0.011450912 0.011862194 0.004859674 -0.015391594
0000b0 b6 e8 41 3c 9d 50 14 bc 7b 37 3c 3c f6 f0 41 3c
       0.011835268 -0.009052423 0.011487837 0.011837235
0000c0 3e f3 a2 bb 91 fe d5 bb 5a 6d ab bb 8b ea 95 bb
       -0.0049728444 -0.006530591 -0.0052315416 -0.004575079
0000d0 cc d8 a5 bb bf 87 a4 bb 2e ca fc 3b 8f e8 c6 3b
       -0.0050612446 -0.005021065 0.0077145314 0.0060702036
0000e0 27 94 a3 3b 26 62 a2 bb 90 d7 a5 3b 06 97 a0 bb
       0.0049920264 -0.004955548 0.0050610974 -0.004900816
0000f0 17 22 9b bb 8a c2 9c bb 60 39 a9 bb ed 5c a5 3b
       -0.0047342884 -0.004783933 -0.0051643103 0.005046478
000100 1a 9b e2 b8 e9 9f 65 38 7f 1c 29 b8 e7 04 78 b8
       -0.0001080541 5.4746783e-05 -4.031928e-05 -5.9132373e-05
000110 8c dd cf b7 c5 e7 39 b6 58 5d 14 b9 8b c6 2c b9
       -2.4779489e-05 -2.7702056e-06 -0.00014149153 -0.00016477161
000120 33 e1 88 37 af 23 69 38 9e fb 56 b7 9a de 1f b9
       1.631733e-05 5.5584762e-05 -1.2813978e-05 -0.00015246347
000130 55 d9 89 b9 6d a8 b6 39 a3 c2 1a b9 2a bd 58 b7
       -0.000262926 0.00034839232 -0.00014759092 -1.29186465e-05
000140 03 03 86 b8 90 49 4a 38 6c 57 86 38 4f 90 0d b7
       -6.390179e-05 4.8229063e-05 6.4059015e-05 -8.437854e-06
000150 f2 df c3 37 14 55 62 b8 38 d8 0f 39 ff 35 b2 38
       2.3350094e-05 -5.3961834e-05 0.0001371809 8.497759e-05
000160 8a 33 7e 38 f3 46 19 38 e8 e2 27 b6 33 da 95 36
       6.060632e-05 3.654412e-05 -2.5017016e-06 4.4659478e-06
000170 3c 80 b2 36 52 ae 55 b7 88 1d e7 37 6b 19 db b8
       5.319742e-06 -1.2736376e-05 2.7551097e-05 -0.00010447468
000180 bb e0 3c bb e6 3d ed 3a be 2b 44 3b 4e 2d c4 bb
       -0.0028820473 0.0018100112 0.00299333 -0.005986846
000190 ba 68 96 bb bf ff 66 3b d3 8e d2 3a 04 d8 2d bb
       -0.004590121 0.0035247651 0.0016064293 -0.002652646
0001a0 a5 e4 3e bb 39 b9 ba bb d0 8a 52 bb c4 38 93 3b
       -0.0029127982 -0.00569835 -0.0032126196 0.004492851
0001b0 c6 73 35 bb e4 77 94 38 53 7a e6 ba a4 6f ae bb
       -0.0027687415 7.079521e-05 -0.0017584063 -0.005323367
0001c0 38 18 23 b6 4b f1 34 36 a5 e4 ed 36 56 d0 f3 35
       -2.430299e-06 2.6962541e-06 7.089768e-06 1.8165545e-06
0001d0 29 db 9b b6 18 f1 b9 34 58 6b 18 b5 b5 82 3e b7
       -4.6448736e-06 3.4634354e-07 -5.678062e-07 -1.1355315e-05
0001e0 30 67 10 37 c4 25 02 36 c8 f5 ad b7 59 1a ae b7
       8.607094e-06 1.9393492e-06 -2.0737658e-05 -2.0754685e-05
0001f0 5b c2 69 36 ff 27 06 37 55 1c 5e b7 5d 99 50 37
       3.4832835e-06 7.996335e-06 -1.3238828e-05 1.2433474e-05
000200 9b df 2d ba 81 58 1e 3b 61 ae de 3a d8 f4 69 ba
       -0.0006632746 0.002416164 0.0016989225 -0.0008924729
000210 8a c4 12 3b 19 4b df ba 22 d8 98 ba d5 fd 5c 3a
       0.0022394978 -0.0017035931 -0.0011661092 0.0008430158
000220 f2 c9 89 3a 51 08 f3 ba 08 b0 96 38 a9 91 2e 3b
       0.0010512455 -0.0018541907 7.185346e-05 0.0026637113
000230 93 ce 0c bb b7 90 3b bb 6a e3 a6 b9 09 05 26 ba
       -0.0021485433 -0.0028620192 -0.00031831424 -0.0006333148
000240 b0 1d cf 3a 1e 6c 1c ba 66 49 5c bb 83 c7 65 ba
       0.0015801694 -0.00059670385 -0.0033613085 -0.00087653863
000250 c2 af 1b 3a a9 46 ba 39 d6 d7 7b bb ff c3 31 bb
       0.0005938971 0.0003552933 -0.0038428209 -0.002712488
000260 7d f9 4b bb dd 29 e3 bb 99 91 7b ba d6 0a 71 3a
       -0.0031124048 -0.0069324807 -0.0009596586 0.0009195035
000270 cd 9c c5 3a b1 b7 0c bb 6f 9b c8 ba d5 35 3c 3a
       0.0015076638 -0.0021471793 -0.0015305112 0.00071796525
000280 bf 8f ab 3a d8 fb 13 bb 42 b8 25 bb 2e 10 c6 ba
       0.0013089104 -0.002258053 -0.0025286828 -0.0015111023
000290 9f ff fa 3a 4e f3 01 bb 5c 74 05 3b 21 95 24 bb
       0.0019149667 -0.0019828859 0.0020363545 -0.0025113302
0002a0 cc 96 3d ba f4 23 97 3b 02 d4 2a ba 54 72 e6 3a
       -0.00072322483 0.0046124402 -0.0006516577 0.001758168
0002b0 36 45 c9 3a ea 2a 0c bb cc 87 1d bb d0 6c 1d 3b
       0.001535571 -0.0021387883 -0.002403724 0.0024021156
0002c0 47 b6 f4 3a 5b c0 88 3a 65 30 32 ba 17 53 8a bb
       0.0018670046 0.0010433303 -0.00067973725 -0.004221331
0002d0 7e e5 2e 3a 32 d2 57 bb 81 cc b4 bb e8 c0 2d 3b
       0.000667177 -0.0032931683 -0.005517543 0.0026512686
0002e0 7c 42 51 b9 ee ed 85 bb 26 87 8c 3b 96 c5 b5 b9
       -0.0001995656 -0.0040872013 0.004288572 -0.00034670223
0002f0 88 7b 23 3a de 9c c0 39 a1 7a d0 ba 80 89 38 3a
       0.0006236364 0.0003673797 -0.0015905687 0.0007039532

encoder.layers.0.self_attn.out_proj.weight f4 [64, 64]
000000 c6 01 80 bd e5 5c de 3d a2 07 89 3d 4e 46 ff bc
       -0.06250338 0.10857562 0.06690909 -0.031161454
000010 3a 6c 95 bd 61 7d 06 bc 71 e8 6e 3d cf d6 e8 3b
       -0.07296033 -0.008208604 0.058327142 0.0071056853
000020 f9 b9 60 3d 48 b9 a7 3d 6f 63 b4 3c d0 a1 19 3b
       0.054864857 0.081896365 0.02202007 0.0023442395
000030 a4 61 81 3d 66 c7 b0 3c 61 cb bd 3d 5e b8 f3 bd
       0.063174516 0.021579456 0.09267307 -0.119003996
000040 50 a9 a0 3c ff ce de 3d 42 b6 2a bd ef 62 0c 3c
       0.019611984 0.10879325 -0.04167772 0.0085685095
000050 5a 5f 00 3d 9f 10 59 bd ae 48 cd 3d f0 0e d7 3d
       0.031340934 -0.052994367 0.10023628 0.10500896
000060 5a 3a 03 be a7 8a 63 bd a2 25 27 bd 0d 21 ea bd
       -0.12815228 -0.05555215 -0.040807374 -0.11432085
000070 a1 79 9f bb 15 ca c1 bc ac ea c5 bd 9c 7a a0 bd
       -0.004866794 -0.02365593 -0.09663901 -0.07835886
000080 7d 1d 2e 3c a9 58 e5 bd b3 cb df bd cf bc 04 3d
       0.010627148 -0.11198551 -0.109275244 0.032406624
000090 7e 03 94 bd 39 9b f9 3d 23 5a 81 3d 54 61 92 bd
       -0.072272286 0.121878095 0.0631602 -0.0714747
0000a0 da 89 e0 3d 5c 46 81 bc 19 94 98 3c 1b b2 ce bd
       0.10963793 -0.01578062 0.018625306 -0.10092565
0000b0 f2 d8 1e bd c5 3e 85 bd d9 30 d0 3d 1c 87 ed 3d
       -0.038781114 -0.06506113 0.10165567 0.11598036
0000c0 9b 7e 8d bd 86 df 79 3a 8e cd da 3d 8d 83 82 bd
       -0.06908914 0.0009531904 0.10683738 -0.063727476
0000d0 bb 1e 3d 3d 54 e8 a9 bd 45 5c bd 3d d9 7e b4 bd
       0.046171885 -0.08296266 0.09246115 -0.08813257
0000e0 8e d3 d7 bc b6 ff 14 3c 6d 1f 1b 3d 5d bc 04 3e
       -0.026345994 0.009094169 0.037871767 0.1296248
0000f0 61 d2 cf 3d e5 e2 85 3c f7 8c a6 3d 65 d8 46 bd
       0.101475485 0.016343543 0.08132356 -0.048546214
000100 01 9b ae 3d 1a 7f ef bd f3 4f da bd 2a 4c 7b 3b
       0.085256584 -0.116941646 -0.1065978 0.0038344958
000110 2e f3 d2 3d 73 33 81 bd 2c 95 95 bd 9f f4 1d bd
       0.10300289 -0.06308641 -0.07303843 -0.038563367
000120 e2 3c de bc d8 9d a7 3d 96 c5 4b bd c6 36 a3 3d
       -0.02712864 0.08184403 -0.04974898 0.079694316
000130 45 c4 b6 bc 01 02 6a 3d a6 4b bc bc 18 ac b0 3b
       -0.022310385 0.057130817 -0.02298529 0.005391609
000140 c6 35 be 3c 67 23 c5 bc 5e 94 0f b9 56 72 93 3d
       0.023219 -0.024064733 -0.00013692814 0.07199542
000150 c9 1a 07 3d 9d 24 c3 3d 74 3c 38 3c 00 e0 5d 3d
       0.03298453 0.09528468 0.011244882 0.0541687
000160 c1 b2 39 3d 4b cc cd bd b7 21 37 bd 28 8f be 3c
       0.04533649 -0.100487314 -0.044709887 0.023261622
000170 32 e5 62 3d 99 5b b8 3d 05 34 01 3e 03 27 b8 bd
       0.05539436 0.09001846 0.126175 -0.08991816
000180 45 89 91 bd 1b 0a d9 bd 85 3e e7 3d 52 73 26 3c
       -0.0710626 -0.105976306 0.112912215 0.01015933
000190 c8 a8 9b bd 30 25 31 3d 5a 2e a4 bd 34 6d 96 bd
       -0.07600552 0.043248355 -0.08016653 -0.073450476
0001a0 1d ed 2a 3d aa d7 ab bd 38 1b 1e 3d c4 d5 1e bd
       0.041730035 -0.08390744 0.038600177 -0.03877808
0001b0 32 7e af bd 83 12 8a bd d4 9f c1 3c fe dd a3 bd
       -0.08568992 -0.06741812 0.023635782 -0.08001326
0001c0 98 ac 9e 3d 93 b3 c2 3d 0f ee 97 bd 1c 73 a1 bd
       0.077477634 0.09506907 -0.07418453 -0.078832835
0001d0 69 43 3d 3d a3 c7 46 bc 99 fa 12 bd 78 74 8b 3d
       0.046206865 -0.012132558 -0.03588352 0.06809324
0001e0 5f f7 38 bd 03 fb a4 bd c5 82 e3 bb 3e 3e 92 bd
       -0.045157786 -0.08055689 -0.006943079 -0.07140778
0001f0 57 78 dc bd 31 56 6e 3b da e6 62 bc 7a 05 b0 bd
       -0.107651405 0.0036367292 -0.013848985 -0.085947946
000200 d8 e7 fa bc 55 6c ac 3d e8 b1 04 3d 8e d3 a6 3d
       -0.03062813 0.084191 0.032396227 0.081458196
000210 ca c6 be bc 09 60 84 3c ab 5b af 3d 38 e8 bd 3c
       -0.02328815 0.016159074 0.08562406 0.02318202
000220 c1 74 92 3c 13 e9 3c 3d 6f 68 bd bd 03 5b 06 bd
       0.017877938 0.046120714 -0.09248435 -0.03280164
000230 23 71 d2 bd 17 5f c8 3d ee f6 73 bd 8b b1 a6 3d
       -0.10275485 0.09783762 -0.059561662 0.081393324
000240 f0 da 10 bd 7e 1e f6 bd bb 28 41 bc d2 97 c3 bc
       -0.035365045 -0.12017535 -0.011789496 -0.023876105
000250 82 20 84 3d f9 3a a4 3d cc 43 cf bd 8e 0b 36 3c
       0.06451513 0.08019061 -0.10120353 0.011111153
000260 a9 4a ab 3d 9d 9a 96 bc 01 61 1a bd 49 85 ec 3d
       0.0836385 -0.018384272 -0.037690166 0.115488596
000270 56 85 b5 bd 4e c7 d2 3d 94 0a 86 bd c8 45 6f 3c
       -0.088633224 0.102919206 -0.06544986 0.0146040395
000280 6b 7e a2 bd 41 d3 79 bc 76 0f 58 3d d2 ba 34 bc
       -0.079342686 -0.015248121 0.05274912 -0.01103087
000290 b8 4f 85 3d 3f a1 c6 bb b0 68 39 3d cb a8 97 bd
       0.06509346 -0.0060617025 0.045265853 -0.074052416
0002a0 5c a4 68 3b ef da c8 bd 53 1c 2e bd b8 78 8f 3d
       0.0035498356 -0.09807383 -0.04250748 0.07005447
0002b0 98 cd e9 3c 07 a6 aa bb c9 28 5a bc f0 ab 31 bd
       0.028540418 -0.0052077803 -0.013315388 -0.043376863
0002c0 a3 7c 5c 3d 2a 1d d6 3d 94 16 4b bc d7 91 98 3d
       0.0538298 0.10454781 -0.01239552 0.07449692
0002d0 a0 4c d4 bd 04 c7 9c bc a5 ea 21 3c 6b 7c da bd
       -0.103661776 -0.019137867 0.009882604 -0.10668262
0002e0 e6 eb ac 3d 31 96 ce 3d 7f e8 d2 bd d6 db a7 3d
       0.084434316 0.100872405 -0.10298251 0.08196227
0002f0 ff 10 22 3d a1 b9 e9 bc 5c a2 80 3c d5 e4 be bd
       0.03956699 -0.028530898 0.015702419 -0.0932099
000300 af 5e b9 3d 71 63 80 bb 7d c1 da ba 4a 1a ac 3c
       0.090512626 -0.0039181043 -0.0016689744 0.02100863
000310 1e a7 d6 3b 5d c3 fb bd c4 ef 62 3d 98 1d 30 3d
       0.0065506836 -0.12293122 0.05540444 0.042996973
000320 49 d2 93 3c b2 b2 71 bd 28 b1 17 3d 65 55 bd 3d
       0.018044608 -0.059008308 0.037034184 0.09244803
000330 f7 d9 bd 3d 7a 38 90 3d 8a ad ec bc 1f fd 71 bd
       0.09270089 0.07042022 -0.028891344 -0.059079286
000340 a7 9a 1a bc 43 05 16 bd 25 b7 bc bd 4d d2 39 bd
       -0.009436286 -0.03662611 -0.092146195 -0.045366574
000350 16 b5 ec 3d 4c af 10 3d 81 d8 c0 bc 64 40 dc bd
       0.11557977 0.035323426 -0.023540737 -0.10754469
000360 c0 4c b7 3d ce fd 80 bd 69 e9 02 bd 0b 30 76 bb
       0.08950186 -0.062984094 -0.03196088 -0.0037565257
000370 24 61 81 bd 58 02 90 3a bc ef 56 bd 6c 77 2c bd
       -0.06317356 0.0010987027 -0.052474722 -0.042106077
000380 07 b4 7a 3d 4f 5e a6 bd 70 c9 ff bc c3 86 e2 bc
       0.061206844 -0.08123457 -0.031223983 -0.02765215
000390 10 87 87 bd 57 65 ba 3d 74 33 c5 3d f9 de a9 3c
       -0.06617558 0.0910136 0.096289545 0.020736204
0003a0 69 b5 a0 3d d9 98 d2 3d 0c 77 85 bd 92 1f ac bc
       0.07847101 0.102830596 -0.06516847 -0.021011148
0003b0 c9 09 fa 3d 9d ac 32 3d bd 19 22 bd b0 06 ec 3d
       0.122088976 0.043621648 -0.039575327 0.11524713
0003c0 d4 59 11 3d 75 15 04 be be 65 e0 bd 6a cd e6 bd
       0.035486057 -0.1289881 -0.10956906 -0.112696484
0003d0 7b c9 a1 3d a3 0b e4 3d a3 82 e4 3c 16 b9 b1 3d
       0.078997575 0.11135032 0.027894324 0.086778805
0003e0 9a bd ec bd 1d 64 68 bd af d5 3c 3c 13 19 9d 3d
       -0.11559601 -0.0567361 0.0115255555 0.07670798
0003f0 02 c9 b8 bd 89 3d fb 3b 84 bb 1b 3d 62 11 97 bd
       -0.09022714 0.0076672477 0.038020626 -0.073763624

encoder.layers.0.self_attn.out_proj.bias f4 [64]
000000 b5 dd a4 3a c5 4a 72 3a 83 44 df ba ca 6f 4c 3b
       0.0012578281 0.0009242709 -0.0017033968 0.003119456
000010 34 8d 0d ba b6 4b a5 ba 40 16 c8 bb 26 5c f7 ba
       -0.0005399764 -0.0012611065 -0.006106168 -0.0018872067
000020 49 44 08 bb 60 a8 34 3b 5c 02 d7 3b a1 4f 09 3b
       -0.0020792654 0.002756618 0.0065615606 0.0020952004
000030 1d a0 da 39 aa 21 ff b9 62 8b 25 ba 75 fe 2b bb
       0.00041699494 -0.00048662472 -0.000631502 -0.0026244198
000040 ea 8c 66 3b 43 cd 99 3b 08 83 93 bb da 48 0e bb
       0.0035179206 0.0046936586 -0.004501704 -0.0021710903
000050 76 6e 83 ba d7 ad a4 bb 26 ba 4d 3b 87 b7 e6 ba
       -0.0010027427 -0.005025606 0.003139147 -0.0017602303
000060 c6 14 17 bb 1b 3d b5 bb e5 9a d1 3a 3a 66 05 bb
       -0.0023053153 -0.005530966 0.0015991597 -0.0020355121
000070 37 c7 3d 3a 2e 34 b7 bb f7 9e 73 3b ba 8b da 38
       0.0007239463 -0.005590937 0.0037173608 0.00010421076
000080 97 66 58 bb 68 86 1f 3a ea 26 e1 3a ff a6 63 3b
       -0.0033020133 0.0006085397 0.0017177735 0.0034736989
000090 94 7e fd b9 f5 c2 78 bb af f8 c9 ba 02 94 a2 3b
       -0.00048350228 -0.0037958 -0.0015409196 0.0049614916
0000a0 bc e5 26 3a d1 98 6f 3b 7a 42 6e 3b 2f 7c c6 3a
       0.00063666306 0.0036559592 0.003635554 0.0015143211
0000b0 07 42 92 3b e8 a1 10 bb 13 70 ff ba d2 0d 8c bb
       0.0044634375 -0.002206916 -0.0019488357 -0.0042741084
0000c0 71 49 2c 3b c3 0b 3c bb c0 24 1c bb 4d 37 98 ba
       0.0026288892 -0.0028693534 -0.0023825616 -0.0011613161
0000d0 7f 3a b7 3a 29 b5 4f bb e7 3a 0d bb 27 3e 47 3b
       0.0013979225 -0.0031693673 -0.002155 0.0030402036
0000e0 19 85 49 3a 24 af 83 3b 4e 6b aa 39 d3 d1 84 bb
       0.00076873746 0.004018681 0.00032504875 -0.0040533333
0000f0 bc 7b 2c 3b 30 48 e6 39 12 9c 7d 3b bb 7c 61 ba
       0.0026318869 0.00043922802 0.0038697761 -0.0008601655

encoder.layers.0.linear1.weight f4 [256, 64]
000000 70 d4 d3 bd a6 ff 77 3d fd f3 af bd 72 c9 d1 bd
       -0.103432536 0.06054654 -0.08591459 -0.10243501
000010 9e 8f 45 3c 87 0b b7 3d 18 30 05 be 66 df 27 bc
       0.012058167 0.089377455 -0.13006628 -0.010246133
000020 47 d5 4b 3c f5 ef 7c 3d a5 0b 03 3d 7f f9 cb bd
       0.012440986 0.06175228 0.031993527 -0.09959697
000030 99 66 a5 3d 72 f1 29 bd 3b f9 92 bd ea 23 94 3d
       0.080762096 -0.041490026 -0.07176443 0.072334126
000040 db 4e a8 bd 20 c3 22 3d d5 b5 a7 3d 46 ee 09 be
       -0.082181655 0.039736867 0.081889786 -0.134698
000050 b3 ef a2 bc a8 da a2 bd b4 1a 8a 3d 26 e9 84 bd
       -0.019889688 -0.079518616 0.067433745 -0.06489782
000060 b0 fc d6 3c 03 7e 91 3b 43 a1 1a bd 12 fe cb 3d
       0.026243538 0.0044400706 -0.037751447 0.099605694
000070 16 cc 84 3d ef 64 e7 3c 24 20 0f bd 45 f2 21 bb
       0.06484239 0.028246371 -0.03494276 -0.0024711054
000080 b8 bf d3 3d f9 e3 bc bd 86 6f ea bd 7e e0 ce bd
       0.10339302 -0.0922317 -0.11447053 -0.10101412
000090 0c d2 a4 bd 2b ab f3 3b e3 a6 10 3d ec 47 ec ba
       -0.08047876 0.0074361763 0.035315406 -0.0018026805
0000a0 94 9e 02 3e a9 53 90 3c ad 92 6a bd 6e ba d3 bd
       0.12755805 0.017618017 -0.057268787 -0.10338293
0000b0 bc ab 75 bd b4 0f 1b 3c 52 6e 13 bc e8 b6 b8 3d
       -0.05997823 0.009464193 -0.00899847 0.090192616
0000c0 ec bc d4 bd 46 86 e1 bd 8a 93 85 3d 91 fc 9d bd
       -0.103875965 -0.11011939 0.065222815 -0.07714189
0000d0 88 c9 b6 3d 0a 55 13 3c 9e f2 e9 bc 89 00 a4 bd
       0.08925158 0.008992443 -0.028558072 -0.080079146
0000e0 a1 fc b5 3d 68 67 ad 3d ff 68 0b 3e a1 da 5d 3d
       0.08886076 0.08466989 0.13614272 0.05416358
0000f0 da 09 c1 bd e9 c5 2a bc f6 cb 9a 3b a4 ed cc bd
       -0.09425707 -0.010423162 0.004724021 -0.10006264
000100 2d 33 b6 3d cc 94 ef bc e8 cb ef 3d 12 8c 70 3c
       0.0889648 -0.029245757 0.11708814 0.014681833
000110 c0 de 07 3a 16 72 c0 bd 39 78 fe 3c c4 e3 ab 3d
       0.00051830336 -0.0939676 0.031063186 0.08393052
000120 e8 ee 98 3d 97 0f a4 3c 05 33 87 bd 41 13 c1 bc
       0.07467443 0.020026965 -0.06601528 -0.023568751
000130 59 b1 90 bc 37 1f ac bc 97 1c fd 3d b2 78 f7 bd
       -0.017662691 -0.021010978 0.12358969 -0.12083568
000140 1f 9e 67 bd 51 ea 94 3d ea 9c ec 3d 58 b7 74 bd
       -0.05654728 0.07271255 0.115533665 -0.059745163
000150 19 ff dc bd 8e ea 08 bd 24 70 ec 3c f3 99 ff 3c
       -0.107908435 -0.033426814 0.028862067 0.031201338
000160 75 bb 74 3d 0a 5d a5 3c 58 47 c4 3d c1 e3 2f 3d
       0.059749085 0.020185966 0.0958392 0.042941812
000170 20 fe b7 bd 3d 27 c9 bd 5c 62 93 bd 4a bd 22 3d
       -0.08984017 -0.09821937 -0.07196495 0.0397313
000180 8b 91 97 3d c6 8d 06 3e 51 de ff 3d 65 11 2e 3d
       0.07400807 0.1314002 0.12493575 0.042497057
000190 7e 5b f5 bc 1b a1 b3 3c 22 02 a3 bd a3 38 c0 3d
       -0.029950853 0.021927407 -0.07959391 0.093858026
0001a0 f7 d0 a2 bd 41 81 16 bd 41 4e 8c 3d df 7d 97 3d
       -0.07950013 -0.03674436 0.06850863 0.07397055
0001b0 d8 0f 9c 3c e2 a7 bd bc 6e a8 ad bd 4e cd 2f bd
       0.019050524 -0.023151342 -0.08479391 -0.042920403
0001c0 71 06 79 3c 45 b6 de 3d d8 e3 c3 bc a6 20 4d bd
       0.01519929 0.10874609 -0.023912355 -0.050079964
0001d0 b8 6a dd bd 46 5c 89 bc 95 27 d2 3d 72 35 85 bd
       -0.108113706 -0.016767632 0.10261456 -0.065043345
0001e0 e5 7c 2c bd 39 ea 6d 3d fe 51 5e bd 2a a0 eb 3d
       -0.042111296 0.0580847 -0.054277413 0.11505158
0001f0 ec cf 1c bd 79 0d 82 3d 88 b7 bf 3d c5 3c 4f bc
       -0.038284227 0.06350226 0.09361178 -0.012648766
000200 64 d9 e6 3d f6 e9 f7 bc f8 8c 1d bd d7 c7 15 bd
       0.11271933 -0.030262928 -0.038464516 -0.036567535
000210 6c 37 f4 bb 6b 90 cd bc 41 38 b0 bd f9 b5 68 3d
       -0.007452896 -0.025093278 -0.086044796 0.056814168
000220 0a b3 a2 bd e5 96 0b bd 25 f5 ff 3d 47 5d 96 3d
       -0.07944305 -0.03407945 0.124979295 0.0734201
000230 ad a7 cc ba 13 83 94 bd fe 84 b2 3d dd fb c5 3c
       -0.0015613936 -0.07251563 0.087167725 0.02416795
000240 e2 3d 49 3d f9 08 88 bd bd 8d 09 3d 29 a9 01 be
       0.04913128 -0.066423364 0.033582438 -0.12662186
000250 0a 48 80 bd ef 63 4f bd a8 08 4b 3d 4a be 29 bd
       -0.0626374 -0.050632413 0.049568802 -0.04144124
000260 68 92 fb bd f4 c3 e3 bd 91 f6 a4 3d bc 57 d5 3c
       -0.12283784 -0.111213595 0.08054841 0.026042812
000270 99 f4 e1 3d 89 14 34 bc ae a2 a0 bd 33 53 b2 bd
       0.110329814 -0.010991224 -0.07843529 -0.08707275
000280 82 e1 4b 3c 8b d9 1c bd 9e bd c7 3c 8f e9 ab bd
       0.012443902 -0.038293403 0.024382409 -0.08394157
000290 7b ea fc bd f8 fd 8d 3b 88 f7 f5 3d f2 2b e8 bc
       -0.12349411 0.004333254 0.120101035 -0.028341267
0002a0 50 36 31 3c 6e 08 b7 3d 78 df df 3d 99 c1 de bd
       0.010816172 0.08937155 0.10931295 -0.108767696
0002b0 49 70 fd bd 79 39 89 3c f7 42 79 bd 91 56 99 bd
       -0.12374932 0.016751038 -0.06085488 -0.07487214
0002c0 2e 4a fa bc 77 ac 4a 3d 43 24 08 bd e2 d7 95 bd
       -0.03055295 0.04948088 -0.033237707 -0.07316567
0002d0 ca 1d c8 3d 7d b9 2f 3d 16 4d 4a 3d a0 2d 37 bd
       0.09771307 0.042901505 0.04938992 -0.044721246
0002e0 71 20 f9 bd c9 9a 4f 3d 4a 2a 98 bc eb 6b f8 bd
       -0.12164391 0.050684724 -0.018574852 -0.12129959
0002f0 89 78 c9 bd 12 86 96 bd f5 e3 be bd 4e 06 9c bd
       -0.098374434 -0.07349791 -0.09320823 -0.0761839
000300 d1 54 73 3c 94 54 8d bd 2f c2 c9 bc d7 c9 90 bc
       0.014851765 -0.069008976 -0.024628727 -0.01767437
000310 dc 76 ba 3c 47 9c 43 bd 81 82 00 bd 4c 3c 15 bd
       0.022761755 -0.04775646 -0.03137446 -0.036434457
000320 94 1e 85 bc 53 78 9f bd 17 12 c5 3c 5d de a8 bc
       -0.016249932 -0.07786622 0.024056477 -0.020613844
000330 b6 74 d1 bd ec 4b c6 3d 10 61 5f bd 13 6b d4 3d
       -0.10227339 0.0968245 -0.054535925 0.10371985
000340 75 f1 c7 3b e3 66 89 3d 61 23 85 3d 89 20 af bd
       0.006101782 0.06709077 0.065008886 -0.085511275
000350 9a fa ea 3d 9d 81 de bc 3f 4b 36 3d fe 4f 32 3d
       0.1147358 -0.027161414 0.044505354 0.043533318
000360 ab 9f 21 3d e0 5b be bc ce 9c e0 3c a5 d7 8a 3d
       0.039458912 -0.023237169 0.02741852 0.06779412
000370 4a da a9 bd ae e9 aa 3c 26 93 c9 3c ad 35 37 3d
       -0.082935885 0.02086338 0.024606299 0.044728924
000380 35 0b a0 3d e3 39 dc 3d 8d 89 46 bd 28 cf 5f 3d
       0.078146376 0.107532285 -0.048471022 0.05464092
000390 6f 86 ab bd b9 f3 25 bc e5 2e 8c bd 91 07 b4 3d
       -0.083752505 -0.010128909 -0.06844882 0.08790506
0003a0 ce 54 02 bc 8b e0 61 bd ab e1 b7 3d b0 23 a9 3d
       -0.007954789 -0.05514578 0.089785896 0.0825876
0003b0 a1 ad ca 3d a1 a7 9c bc d5 da 36 3d 32 8a c9 ba
       0.09896398 -0.0191229 0.04464229 -0.0015376268
0003c0 d0 a0 87 3c 3d f1 cf bd 8f bd cf 3d 34 55 75 bd
       0.016556174 -0.101534344 0.10143577 -0.05989571
0003d0 01 ab af 3d 39 ab 02 be 09 9f d6 bd 80 52 8e 3d
       0.08577538 -0.12760629 -0.10479552 0.069493294
0003e0 f7 f3 21 bb df fd 82 3d 5e 64 b5 3c d9 58 8e 3d
       -0.0024712065 0.06396078 0.022142585 0.0695054
0003f0 52 1a b3 3b 49 76 fc 3d e9 72 ba bd 62 32 5a 3d
       0.005465784 0.123272486 -0.091039486 0.053270705

encoder.layers.0.linear1.bias f4 [256]
000000 ca ab 73 bd 62 f9 81 bd f3 81 b8 bd ec d7 ee bc
       -0.059490003 -0.06346394 -0.09009161 -0.029155694
000010 3d 18 2b 3d bc 25 c3 3d 4c 5e ea bc c9 7f d8 bd
       0.041771162 0.09528682 -0.028609417 -0.10571248
000020 9b b6 45 bd 55 a3 d7 3d db 82 bc 3c 25 c3 1c bd
       -0.04826985 0.105292 0.023011615 -0.03827204
000030 cf 28 c2 3b fa 97 0c 3d 22 97 82 3d 59 df 68 3d
       0.005925275 0.034324624 0.063764825 0.056853626
000040 57 9d f0 bd 18 ae c0 bc ca 01 c8 bd 8e e9 ab bb
       -0.1174876 -0.023520514 -0.09765966 -0.0052463477
000050 30 32 e2 bd 54 ca 51 bd 76 69 57 bd 47 c5 ad 3d
       -0.11044729 -0.051218346 -0.05259081 0.08484893
000060 22 a8 a0 3d e6 77 a0 bd 96 bf d9 bd dd 98 b4 bd
       0.07844569 -0.07835369 -0.10632245 -0.08818219
000070 76 ad 8f 3c 46 08 b1 3b 35 87 d6 3c 78 fd 89 bd
       0.017538767 0.0054025976 0.026187519 -0.067377985
000080 02 0e 7a 3d a0 16 33 3d e2 50 55 bd fe af 60 3c
       0.061048515 0.04372275 -0.05207909 0.013713835
000090 31 f8 e4 3d 19 92 2d bd 2e 5c 6d bd 64 21 20 bd
       0.11180151 -0.042375658 -0.057949238 -0.039094344
0000a0 12 90 e9 3c ac 51 3d bd 49 fe 48 bd 61 71 21 3d
       0.02851108 -0.046220466 -0.04907063 0.039414767
0000b0 5a 4d ae bc 30 e2 2e 3d 05 cb ef 3d 60 3f 8c 3d
       -0.021277118 0.042696178 0.11708645 0.06848025
0000c0 90 2f 30 3d 32 69 aa bd b3 4a 2a 3d 4e 2c d2 3d
       0.04301411 -0.08320846 0.041575145 0.10262357
0000d0 be eb e7 bd 8f d4 af 3c db 1e 66 3c 7f f2 d6 bd
       -0.11324261 0.02146366 0.014045442 -0.10495471
0000e0 91 31 1f bd d6 99 29 3c f1 70 c9 3d 7b 02 fa 3d
       -0.03886563 0.010351619 0.09835995 0.12207504
0000f0 00 9b 07 3e 8d 6d 95 3c 33 9b 11 3d b9 24 d8 3d
       0.13242722 0.018240714 0.0355484 0.10553879
000100 ca a8 41 3c 63 29 8a 3d 63 22 cb 3d ee a8 da 3a
       0.011820028 0.06746175 0.09918668 0.0016682425
000110 87 76 c1 3c bf 17 1a 3d 46 2d e6 ba b0 6d 33 3d
       0.023616089 0.037620302 -0.00175611 0.043805778
000120 c3 de 72 bd b3 de 95 bd f0 2b c2 bd 90 23 79 3c
       -0.059294473 -0.07317867 -0.09481037 0.015206233
000130 91 de 84 3d 0c 95 c8 bd ab 8e 96 3d fa 88 49 3d
       0.06487764 -0.097940534 0.073514305 0.049202897
000140 13 1d b3 bd 8a 81 d2 bd 43 2c 24 bd 60 50 15 3d
       -0.0874578 -0.10278614 -0.040081274 0.036453605
000150 93 b3 e0 bd e1 76 98 bd cd 00 82 bc 50 c1 fa bd
       -0.10971751 -0.07444549 -0.015869522 -0.12243903
000160 84 86 fe bd 57 bb e8 bc 7c 21 d2 3c db e4 c6 3d
       -0.124280006 -0.028409643 0.025650732 0.097116195
000170 de 0d 4a 3d a4 61 ab 3a 1d c1 e3 bd 28 32 01 bc
       0.04932963 0.0013075364 -0.11120818 -0.007885493
000180 95 d9 46 bd 20 66 27 3d a4 b2 88 bd e6 6d f3 bd
       -0.048547346 0.04086888 -0.06674698 -0.11886196
000190 62 14 3f bd c4 38 16 3d cd 1c fa 3d e5 23 fc 3d
       -0.046650298 0.03667523 0.122125246 0.12311534
0001a0 7f 48 15 3d 39 f5 23 3d ca 66 90 bd 7c 64 90 bc
       0.03644609 0.040028784 -0.070508555 -0.01762604
0001b0 e0 5e f0 3c 31 9d bb bd 53 b7 5e 3d ae 54 02 bc
       0.029342115 -0.09160841 0.05437405 -0.0079547595
0001c0 27 cc b8 bd 7d 8c 15 bd 18 ec 5a 3d 49 e6 68 bd
       -0.09023314 -0.036510933 0.053447813 -0.056860242
0001d0 3b 6f 4f bd 66 1f f4 3d 46 f7 d9 3d e8 ce 2e bd
       -0.050643187 0.11920051 0.10642867 -0.04267779
0001e0 d7 50 54 3d f6 56 c7 bd ae 97 8b 3d 42 7c ae 3d
       0.051834907 -0.09733383 0.0681604 0.08519794
0001f0 f7 a5 ad bd a1 fd a1 bd ba 50 92 bc 49 a6 07 bc
       -0.08478921 -0.07909704 -0.017860759 -0.008279392
000200 1e 8b ab 3d e5 db 51 bd 3c 37 93 bc 0c ac 9a bd
       0.08376144 -0.0512351 -0.017970674 -0.075523466
000210 9d 38 da 3b 2a a5 01 bc dc ba 4c bd 40 d2 aa bd
       0.006659581 -0.007912913 -0.04998289 -0.08340883
000220 f2 2e 3d bd 6b 6e 87 bd e0 81 9f 3c 10 53 80 bd
       -0.04618735 -0.066128574 0.019471109 -0.06265843
000230 34 47 58 bd b9 6f d9 bd de 5a 18 bd 9d 6f dd bd
       -0.05280228 -0.106170125 -0.037196033 -0.10812304
000240 0f 8c 41 3d 18 8a 88 3d 64 fb 74 3c 2e f7 26 3d
       0.04725271 0.06666964 0.014952514 0.040763073
000250 2a ef e9 bb 4e 4e 9c 3c 3f d7 82 bc f6 dc 5a bd
       -0.0071391063 0.019080307 -0.015971778 -0.05343338
000260 cc a6 5b bd ed 8b 34 bd a6 a4 ea bd 24 fe 03 3d
       -0.053625867 -0.044078756 -0.114571854 0.03222479
000270 25 dc fd 3d be d7 a6 3d 5d 92 97 bd 69 23 98 bb
       0.12395505 0.08146618 -0.074009635 -0.004642893
000280 75 92 e2 3a be 36 97 3d bd 3c 94 3d b6 d8 87 3d
       0.0017286079 0.07383488 0.072381474 0.06633131
000290 6d 28 df 3b c8 3f b9 3c d6 d1 fb 3c 87 eb 12 bc
       0.006810239 0.022613421 0.030739706 -0.008967287
0002a0 a1 2d 4d 3d ea af 3e bd f2 1c d9 3d 6d 9b bd bd
       0.050092343 -0.046554483 0.10601224 -0.09258161
0002b0 4f 13 21 3c 37 2d 95 3d 57 57 3c bc 47 b8 6f bd
       0.009831264 0.07284015 -0.011495433 -0.05852535
0002c0 e7 3b e1 bd 1f 1b 44 3d b6 55 05 3e 50 62 58 bd
       -0.109977536 0.047877427 0.13020977 -0.052828133
0002d0 81 19 6c bd 94 2a 00 3e 8f b5 04 3d ed b7 2a bd
       -0.05764151 0.12516242 0.03239971 -0.04167931
0002e0 9a 79 63 bd 18 3b b8 bd f2 0d e6 3d fb 25 ef 3d
       -0.05553589 -0.08995646 0.112331286 0.11677166
0002f0 57 3e 6c bc c4 4b c0 bd 12 a9 d1 bd f0 e2 28 3c
       -0.01441916 -0.09389451 -0.10237326 0.010308012
000300 fb 19 30 3d 28 6a 8a bd 32 46 ba bd eb cb e9 3c
       0.042993527 -0.06758529 -0.0909542 0.028539618
000310 3e f3 e0 3d 7a e0 ae 3d d3 68 f3 3d fc a6 83 bc
       0.10983895 0.08538909 0.11885228 -0.016070835
000320 bf 27 82 bd 2c ae 37 bc 63 19 e0 3d a3 aa c6 bc
       -0.06355237 -0.011210959 0.10942342 -0.024251288
000330 cc 56 a3 3d 09 7d 0e 3c 23 b2 a0 3d a7 18 87 bc
       0.079755396 0.008696803 0.07846477 -0.016491247
000340 5e 17 9c 3c 6b cf 5d 3d 03 f7 3f 3c 12 2b a4 3d
       0.019054111 0.054152887 0.011716607 0.080160275
000350 c3 f7 3b bd 21 f6 45 3d 50 88 95 bd 5e 70 c2 bd
       -0.04589058 0.04833043 -0.0730139 -0.094940886
000360 38 5e b3 3b d7 0e 7d bd f8 d2 8f bd 0a 32 e9 3d
       0.0054738782 -0.06178173 -0.07022661 0.11386497
000370 7f 1e 97 3d 38 c1 ab 3c 48 19 b6 bc 05 53 b3 3c
       0.073788635 0.020966157 -0.022228852 0.021890173
000380 11 56 ce bd d4 b3 2c 3d 5c 54 50 bc dc e9 05 3c
       -0.100750096 0.042163685 -0.012715425 0.008173432
000390 4d 65 82 bd a1 9a 89 3d 69 4f c1 3d 6f ad 4f 3d
       -0.06366978 0.06718946 0.094389744 0.05070251
0003a0 a9 cb 9f bd 93 12 db bc 19 3c 2a bd f0 f9 a2 bd
       -0.07802517 -0.026742255 -0.04156122 -0.07957828
0003b0 2d 41 d4 3d 16 09 58 bc 25 a9 f9 bd d5 f6 90 3d
       0.10363994 -0.01318576 -0.12190465 0.070783295
0003c0 4a 99 bf bd 1e d1 67 bc 30 f3 49 bd 8b ab 18 3d
       -0.093554094 -0.0141489785 -0.049304187 0.03727297
0003d0 52 db 9b bd 16 ad 6c bd f2 87 ff 3d f7 3c f8 bb
       -0.076101914 -0.057782255 0.124771014 -0.007575627
0003e0 91 1e 49 3d 60 43 6e 3b 5c 0e 71 3b 4b 14 9b bd
       0.049101416 0.0036356077 0.003678224 -0.0757223
0003f0 dc d5 d3 bd ec 1a ac bd d7 08 20 bd 45 f8 81 3c
       -0.10343525 -0.084035724 -0.03907093 0.015865454
